Python学习/MachineLearningFile/CNN/model/model_mnist.pth (torch_old, 273209 bytes, 28 tensors)

conv1.0.weight f4 [16, 1, 3, 3]
000000 64 1b a6 3d 57 97 a3 bd 14 3a a2 be d4 84 22 be
       0.08110693 -0.0798785 -0.31684935 -0.15870982
000010 fe 42 b6 bd e1 75 da bb 6f 7d 6e 3d e5 c7 4c 3e
       -0.088994965 -0.0066668843 0.05822509 0.19998129
000020 93 b0 7e 3e 1d b4 4e be 01 5b 9f 3e 0e b6 99 3e
       0.24872045 -0.20185895 0.31124118 0.3002171
000030 fb 01 65 be fa 07 b3 be aa f6 97 be 85 de 1a 3d
       -0.22364037 -0.34967023 -0.29680377 0.037809867
000040 70 f4 cb bd 38 6c 49 3d 02 88 33 bd 13 4f cf 3d
       -0.09958732 0.04917547 -0.04383088 0.10122504
000050 eb 15 2b be 8a 52 c4 be 63 19 59 be 2c 4e 6b 3e
       -0.1670758 -0.38344222 -0.2120109 0.22979039
000060 0c 36 18 3e b1 2f 66 3d f3 bb 98 3e 7a f4 52 3d
       0.14864367 0.056197826 0.29830894 0.051502682
000070 7b 9e f1 bd 5b 6d 28 3e e1 94 3c 3e 02 b7 6e 3d
       -0.11797806 0.16447966 0.18416168 0.05828
000080 82 1f b9 3e df ab 68 be 54 0e 61 3e 56 26 68 bd
       0.3615685 -0.22721814 0.21978122 -0.056677185
000090 e0 39 30 3e 5e 17 21 be 46 40 00 be 35 94 03 3e
       0.17209578 -0.1573157 -0.12524518 0.12849505
0000a0 23 f4 47 3e 50 ae 3a be 43 3a 33 be 3f 63 94 3e
       0.19526725 -0.18230557 -0.17502694 0.2898197
0000b0 2c bf 26 3b 53 6f 82 be 26 16 ab 3e 4b b2 39 3e
       0.0025443537 -0.2547556 0.33415335 0.1813442
0000c0 a8 b6 84 be c3 7d 02 be bf 79 a0 3d bf a2 84 be
       -0.25920606 -0.12743287 0.07835721 -0.25905415
0000d0 b3 d2 03 3d 29 06 77 3e 05 69 2d 3e e5 5b e5 3d
       0.03218336 0.24123444 0.16934593 0.11199168
0000e0 08 d9 94 3e 15 0c be 3b d3 de 49 3e 88 0a 96 be
       0.29071832 0.00579978 0.19713907 -0.2930491
0000f0 43 6b e2 bd f4 2c 80 be 56 cb 2f be 54 0a 9b 3d
       -0.11055615 -0.25034297 -0.1716741 0.07570329
000100 de ac 1d 3d 77 8d 2b 3e 99 7e 35 be be ef da 3d
       0.038494937 0.16753183 -0.17724074 0.106902584
000110 27 23 36 3e 66 b6 10 bd 88 19 ce be da 37 01 bb
       0.17786847 -0.0353302 -0.40253854 -0.0019717128
000120 d3 37 47 3e 31 66 aa 3d fa 31 4e bd 7f 9b 4d be
       0.19454889 0.08320273 -0.05034063 -0.20078848
000130 fd 9a 37 3e f3 18 18 3e e0 e5 85 be d8 75 81 be
       0.17930217 0.14853267 -0.26151943 -0.2528522
000140 dc 57 d1 be 36 c0 8a be 2f b7 0a be 50 7f 89 3e
       -0.40887344 -0.2709977 -0.13546441 0.26854944
000150 05 cd 40 3d a6 46 46 be 5d ed 28 be 9d d7 81 3d
       0.04707052 -0.19362888 -0.16496797 0.06339953
000160 95 16 34 3e f8 5a 67 be 65 81 2d bd 88 46 d9 bd
       0.1758674 -0.22593296 -0.04235973 -0.10609156
000170 89 dc 8c be 35 29 fd 3d 30 20 bd 3d 8a 35 6f 3e
       -0.27512005 0.12361375 0.09234655 0.23360267
000180 c2 81 c2 bd 60 11 fc 3d 36 2c e3 bd 19 4c 53 3d
       -0.094974056 0.123080015 -0.11092417 0.051586244
000190 6d 75 65 be 5d 28 91 3d 09 f6 15 be b6 0d 0b be
       -0.22408076 0.07087777 -0.14644636 -0.13579449
0001a0 af 4a 10 3e 25 29 8d be 63 0f 78 be 0c db 1b 3d
       0.1409099 -0.27570453 -0.2422462 0.038050696
0001b0 7a 78 d9 3d 29 8d 2f 3e 0e ce f6 bd c9 bc d3 bd
       0.10618682 0.17143692 -0.120510206 -0.10338742
0001c0 21 0f 8f be ba 85 17 3e d6 84 b4 bc a4 9d b1 be
       -0.2794123 0.14797106 -0.022035997 -0.34690583
0001d0 fd 70 61 be df 47 86 be 80 de 1d be bf 12 93 be
       -0.22015758 -0.26226708 -0.15416908 -0.2872524
0001e0 e3 e5 3a be 66 85 0b 3e 49 d2 89 bd 9b bf a8 3e
       -0.18251757 0.13625106 -0.06729562 0.32958683
0001f0 25 06 bf bc 83 5f 47 be 5f 6e 6e be 97 60 49 be
       -0.02331836 -0.19470029 -0.2328429 -0.19665752
000200 76 32 71 3e 3d 1a 72 3e fa 0e 88 be 09 15 e0 be
       0.23554406 0.23642822 -0.26573926 -0.4376605
000210 cd b1 90 3e 68 33 40 3c ac 1b 92 3e 13 ab 5e 3d
       0.2826065 0.011731006 0.28536737 0.054362368
000220 7c fb a3 be 77 18 10 be 23 1c 40 be 99 6f 11 be
       -0.32027805 -0.14071833 -0.18760733 -0.14202727
000230 11 d3 c2 be 2b 4c a2 3e 02 69 bb 3c 1a 3d 7b be
       -0.38051656 0.31698737 0.02287722 -0.24535027

conv1.0.bias f4 [16]
000000 5d d3 82 be 39 f3 46 be ad 86 e5 bd 2a 41 ad be
       -0.25551882 -0.1942872 -0.11207328 -0.3383878
000010 fa 8d 73 be c6 70 54 3e 5c a9 2d bc 50 ed ce 3e
       -0.23784629 0.20746145 -0.01059946 0.4041543
000020 e6 bc 83 3c f5 d9 87 bd 18 13 fe 3c fc 65 8f 3d
       0.016081285 -0.06633369 0.031014964 0.07001874
000030 f2 fe 6f 3e 98 99 f6 3d ab db df be 92 15 f1 bd
       0.23437098 0.120410144 -0.4372228 -0.11771692

conv1.1.weight f4 [16]
000000 74 9f 79 3f e3 7d 9e 3f 4e 60 40 3f 29 b3 6d 3f
       0.9750893 1.2382168 0.7514695 0.928515
000010 81 2f 7e 3f cd d1 7d 3f 5a 83 83 3f e5 82 88 3f
       0.99291235 0.99148256 1.027446 1.0664946
000020 30 11 8f 3f c3 cb 84 3f 17 2d 77 3f fd c1 8b 3f
       1.117712 1.0374683 0.96553177 1.0918576
000030 51 b5 80 3f 5f 30 88 3f ae fc 7d 3f ab 11 86 3f
       1.0055333 1.0639762 0.99213684 1.0474142

conv1.1.bias f4 [16]
000000 ac 48 2c 3d bd e1 09 3e da 55 5c be 3d a8 7a bd
       0.042061493 0.13465019 -0.21517125 -0.0611956
000010 00 cf 53 be f6 c9 62 3d 59 05 4b bb 13 28 e4 bc
       -0.20684433 0.055368386 -0.003097853 -0.02785114
000020 f8 01 62 3d f9 6e 51 bc 34 40 00 be f3 de 4a 3d
       0.05517766 -0.012782806 -0.12524492 0.049529027
000030 24 10 bf ba 5c 43 84 bd aa f6 c1 3d e9 59 d1 3c
       -0.0014576954 -0.0645816 0.094708756 0.025555568

conv1.1.running_mean f4 [16]
000000 82 68 78 be e8 2c 2b 3e 63 3b 27 be 83 d0 4d bf
       -0.24258617 0.16716349 -0.16331248 -0.8039629
000010 b5 50 af be d2 15 4c 3e 55 67 91 3d 24 c8 e4 3e
       -0.34241262 0.19930199 0.07099787 0.44683945
000020 eb f3 dd 3e 10 20 7e 3e b5 d9 40 3d 19 1e 13 3f
       0.43350157 0.24816918 0.04708262 0.574678
000030 67 b9 3c 3f f5 0d 16 3f d3 69 b7 be 22 05 1f 3f
       0.737204 0.58615047 -0.35822925 0.6211721

conv1.1.running_var f4 [16]
000000 28 14 85 3d ea ca 0f 3e a2 13 a8 3d fe d8 0d 3e
       0.06497985 0.1404225 0.0820687 0.13852307
000010 75 9b 08 3d 1c f5 1a 3e 33 99 f2 3d 35 ed 5f 3d
       0.03335138 0.15132564 0.11845627 0.054669578
000020 42 df 29 3e 89 17 8b 3d 13 23 e6 3c e9 69 41 3e
       0.16589072 0.06791598 0.028092897 0.18888058
000030 7b 46 38 3e 4d 99 36 3e 27 31 95 3d 55 59 b8 3e
       0.17995636 0.17831917 0.07284766 0.36005655

conv2.0.weight f4 [32, 16, 3, 3]
000000 2c 8e 22 be d6 1b b5 bd 9c d6 28 be 55 59 10 be
       -0.15874547 -0.088432 -0.16488117 -0.14096577
000010 ed bf 1f 3d c5 8d 06 3d 01 66 d5 3d 74 3f 50 3d
       0.039001394 0.032850046 0.10419846 0.050841764
000020 54 06 d9 bc 33 6d b9 3d c5 ce c9 bd 11 51 d9 bc
       -0.026492275 0.09054031 -0.09853891 -0.026527913
000030 35 1e 5e 3e c2 2f eb 3c 7a 7a 7c 3c e1 99 27 3e
       0.2169121 0.028709296 0.01541006 0.16367294
000040 b5 9f bd 3d d9 89 ad bc e6 48 11 3c 7f 7a 9f 3c
       0.09258977 -0.021183895 0.008867478 0.01946759
000050 d2 63 53 3d f1 2d da bd 44 59 e2 bc e8 81 97 3c
       0.051608868 -0.10653294 -0.027630456 0.018494561
000060 47 18 11 3d 82 86 27 3d 6b 6d 37 3d 6b 24 ff 3c
       0.035423543 0.04089976 0.044782083 0.031145295
000070 01 1c 58 3e 40 16 f7 3d 84 1f 0a bd 1e 67 b5 3d
       0.21104433 0.12064791 -0.033721462 0.08857559
000080 40 b8 7b 3d d5 5b bf bd 1a af 86 3c fa 04 0d bc
       0.06145501 -0.093436874 0.016440917 -0.008607144
000090 52 e6 bb 3d 16 f3 f7 3b aa 95 04 3d ca 2b 8f bd
       0.091747895 0.00756682 0.032369293 -0.06990774
0000a0 2d d4 ab bd 36 d0 5d bd 45 11 d4 bc fe 0a e1 bd
       -0.08390079 -0.054153644 -0.025887141 -0.10988425
0000b0 d2 e6 9f bd 9d 77 04 3e 7c e6 d2 3b a7 24 97 3d
       -0.07807697 0.12936254 0.0064361673 0.07380038
0000c0 73 f6 4c 3d 9a 1d 60 bc 6d fd 21 3c 27 9a 56 bc
       0.05003972 -0.013678933 0.009887082 -0.013098276
0000d0 52 33 e9 bd 24 df aa bd c4 12 00 be 29 91 a5 bc
       -0.11386742 -0.08343342 -0.12507159 -0.02021082
0000e0 ef 4d 27 3c c5 e5 37 bd d6 c7 11 3d 51 a1 d8 3d
       0.010211452 -0.04489686 0.03559097 0.10577644
0000f0 0d 10 16 3e 97 ad a6 3c 50 43 da bd 79 3e 14 3d
       0.1465456 0.020346446 -0.1065737 0.03619239
000100 62 01 18 bc 2d 06 82 bd a8 d8 c2 3d a2 bb 12 3e
       -0.009277673 -0.06348834 0.0951398 0.14329389
000110 cc 7a 4f bd 6a 66 45 bb 2a 0d 07 be af e1 5f be
       -0.050654218 -0.0030120858 -0.13188615 -0.21863435
000120 03 c6 88 bd fa f6 68 3d f9 fd d5 bd c7 a9 8b bc
       -0.06678393 0.05687616 -0.10448832 -0.01704873
000130 f7 5c 8c 3d 93 cd f4 3c 53 42 e8 3c f2 4f 99 bd
       0.06853669 0.029883182 0.028351938 -0.074859515
000140 b6 77 77 3c 1a ca b4 3c ce 09 d2 bc 76 05 8d bd
       0.015104225 0.022069026 -0.02563944 -0.06885807
000150 8e b5 1d 3e e5 63 2e 3d 99 f1 08 3d 0a a8 ef 3d
       0.15401289 0.042575736 0.03343353 0.11701973
000160 b2 e0 3b bd e1 9d f6 3c fe 6a 88 bd 92 00 1f 3c
       -0.045868583 0.03010458 -0.06661032 0.009704726
000170 47 2b 54 bd 98 93 2c bd 7b c0 77 bc 5d f0 e1 bd
       -0.051799085 -0.042132944 -0.0151215745 -0.11032174
000180 38 85 cb 3d 56 33 54 bd f4 8b 4a 3c 3c e9 25 bd
       0.09937519 -0.05180677 0.012362469 -0.040505633
000190 55 88 3c bd 26 c2 e8 bc c9 bd 62 3b ab f2 71 bc
       -0.046028454 -0.02841289 0.0034597984 -0.014767329
0001a0 7a 56 0b 3d 15 39 52 3b 56 55 19 bd dc 12 1f 3d
       0.034018017 0.003207748 -0.0374349 0.038836345
0001b0 eb 11 9a 3d b1 12 bf bd ea 6a b5 bd 55 42 79 bd
       0.07522949 -0.09329737 -0.08858283 -0.060854275
0001c0 25 0e 69 bc e9 d3 63 3d 48 44 03 be 97 8e 76 3d
       -0.014224564 0.055622015 -0.12819016 0.060194578
0001d0 be 42 29 3d 28 83 cf bd 3d ff 89 bb fb 32 5a bd
       0.041323416 -0.10132438 -0.004211335 -0.053271275
0001e0 ca ff 97 3a 69 53 56 3d 71 2f 34 bd b4 5f c0 bc
       0.0011596617 0.05232564 -0.043990556 -0.023483135
0001f0 ef cb b9 3d 39 09 2d 3a 6e 4f e6 bd 55 12 9b bd
       0.090721 0.00066008006 -0.11245619 -0.07571856
000200 34 94 b0 bd ca ec 43 bd b2 0b 02 3e 14 0b b7 bc
       -0.086220175 -0.04783324 0.12699774 -0.02234415
000210 69 dd 1f 3d 4f 6a b7 3d 70 f2 fe 3c af a4 93 3d
       0.039029513 0.08955824 0.031121463 0.07209145
000220 97 cd 06 3e 25 90 1a bd 5f 45 c4 3d ee 1b c5 3c
       0.13164364 -0.037735123 0.09583544 0.02406117
000230 e5 40 16 bd 06 6d b1 bd 4a 8c 24 bc 59 53 38 bd
       -0.036682982 -0.08663373 -0.010043213 -0.04500136
000240 db cf 27 be 09 05 05 be ab 08 08 bd 5f 74 e0 bd
       -0.16387884 -0.12990202 -0.03321139 -0.10959696
000250 0d 31 21 3c 10 d1 30 3d 30 69 c0 bc 13 c4 b9 bc
       0.009838355 0.043168128 -0.023487657 -0.022676503
000260 cd a2 07 bd df d4 73 bd 0f 6f 0c be bc 69 39 be
       -0.033114243 -0.05952918 -0.1371424 -0.1810674
000270 33 fb 72 3d 13 ee 98 bc 9c 4e 74 bd 9d 46 ba 3c
       0.059321593 -0.01866821 -0.05964528 0.02273875
000280 d1 cc 18 bd 5e ae 15 be de 64 db bd f2 7b 6c 3d
       -0.037304703 -0.14617297 -0.10712598 0.05773539
000290 b1 e1 8f 3c dd 16 6a 3d ec d5 25 3d c2 a2 96 bc
       0.017563673 0.05715071 0.040487215 -0.018388156
0002a0 54 12 95 3c 68 19 84 3c 5d a5 1e 3d 49 f8 e8 bd
       0.018197216 0.016125396 0.03873192 -0.11375482
0002b0 e1 5f 8f bc 9e 13 af bd 60 13 e0 bd bf 37 c3 bc
       -0.017501773 -0.085486636 -0.109411955 -0.023830293
0002c0 56 1e a1 bc 91 73 ed bb dc c7 ef 3c cc 4b 0a 3d
       -0.019667786 -0.0072464426 0.029270105 0.03376369
0002d0 df 3b 90 bc 03 2e 89 3d 73 0d d4 3b 24 32 23 ba
       -0.017606674 0.06698229 0.00647133 -0.0006225428
0002e0 98 03 e1 bc 1e 6d 03 3e 6a db 3a 3b 08 3c 3c 3d
       -0.027467534 0.12834594 0.0028512129 0.045955688
0002f0 e8 6c 7e 3d 69 aa 75 ba 67 f5 da 3d 48 e8 81 bd
       0.06211558 -0.00093714014 0.10691338 -0.06343132
000300 74 e4 1d bb 06 cc 5a 3c 3d f9 97 3d 21 a3 a4 3c
       -0.0024092468 0.013354307 0.07420585 0.020097317
000310 71 e8 bb 3d 5a 92 dd 3d 74 a6 dc 3d b9 13 cd bd
       0.09175194 0.1081893 0.10773936 -0.100135274
000320 84 6e 8c bb a2 e5 3c bd 9b e3 32 be 46 61 13 bd
       -0.0042856354 -0.046117432 -0.17469637 -0.03598144
000330 7a bf f4 bd 31 fc 77 be f6 0f 06 be 52 a8 17 3d
       -0.11950584 -0.24217297 -0.13092026 0.037025757
000340 f8 c2 a6 bd 0e 7c 28 be d8 23 df 3d 5e 5b dd 3c
       -0.08142656 -0.16453573 0.108955085 0.027021106
000350 0f 26 b5 bd 02 c8 2a 3e 97 0c 81 3d 8d fd ab 3d
       -0.0884515 0.1667786 0.063012294 0.0839797
000360 47 4e 75 bd 79 16 27 3d b2 98 98 bd b7 7c 37 3d
       -0.059889104 0.040792916 -0.07450999 0.04479667
000370 a9 8a 12 be cf 17 55 bd a7 de 57 bd 7e ca 38 bd
       -0.14310707 -0.05202466 -0.052702572 -0.045114987
000380 fa 07 95 bd 3c 86 5b bd 99 a4 ac bd e5 20 77 bc
       -0.07276912 -0.053594813 -0.08429832 -0.015083526
000390 01 ca fc bd 5a eb 5c 3c 16 ce ab bd 92 02 94 3d
       -0.12343217 0.013483847 -0.08388917 0.07227053
0003a0 7c f2 a3 3d 30 10 51 bd 4c ad e4 bc a2 de 2a bc
       0.080052346 -0.05104083 -0.027914666 -0.010429056
0003b0 27 4c 30 3d 61 3a 03 3b 6a 6b 99 bc 8c 1c 9b bd
       0.043041375 0.002002381 -0.018727977 -0.07573804
0003c0 ef f3 d5 bd fb 23 90 3d a5 68 47 bd b7 0f 4f 3d
       -0.10446917 0.07038113 -0.04868378 0.050552096
0003d0 ab d2 cf 3d 28 ab 67 3d dd 32 93 bc dc a5 22 3e
       0.101476036 0.05655971 -0.01796859 0.15883583
0003e0 82 e6 86 3d a9 d6 0d 3e 70 48 0e 3e 78 5c 07 bd
       0.065869346 0.13851418 0.1389482 -0.03304717
0003f0 a1 0a 9a bd 3b c3 11 bc 1f a9 48 3d bc 73 3e 3e
       -0.075215586 -0.008896644 0.04898941 0.18598837

conv2.0.bias f4 [32]
000000 85 08 11 3d cd b8 a0 3d f0 49 4b bd fb 41 be 3d
       0.035408515 0.07847748 -0.04963106 0.092899285
000010 24 c9 13 3e f6 85 fd bd 3f 69 29 bd ab e1 0a be
       0.14432198 -0.12379067 -0.041360136 -0.13562648
000020 9e bb 20 3e b1 b6 ba 3b b4 79 9b 3d 7c 7b 33 ba
       0.1569657 0.005698048 0.075915724 -0.0006846709
000030 0e 24 67 3c 84 82 47 3d 72 51 86 3d 2f 93 95 bd
       0.014107717 0.048708454 0.06558503 -0.07303464
000040 35 81 53 bd ae d2 1d bd 6b c2 ad 3d d6 03 a1 bd
       -0.051636893 -0.038530998 0.08484348 -0.0786206
000050 d2 65 c4 3b 5a ff 52 be 83 d1 84 bc 26 51 58 bc
       0.0059935832 -0.20605221 -0.016213184 -0.013202941
000060 ce 0a f9 bc df de c8 3d bf 77 df bb fa 16 46 bd
       -0.03040066 0.09808134 -0.006819695 -0.048361756
000070 c6 47 87 3d cd 9a 8f 3d c0 60 48 3e 95 96 c0 3c
       0.066054866 0.07011948 0.19568157 0.023509303

conv2.1.weight f4 [32]
000000 c9 42 7b 3f a5 4e 85 3f 6f 3f 6d 3f 37 ec 82 3f
       0.9814878 1.0414625 0.92674917 1.0228337
000010 a1 8c 98 3f 58 f1 71 3f ce c1 78 3f 78 4a 83 3f
       1.1917917 0.94508886 0.9717072 1.0257101
000020 97 94 7b 3f a6 ed 88 3f fa df 88 3f fc 2e 82 3f
       0.98273605 1.0697525 1.0693352 1.0170588
000030 70 b4 84 3f 2b 8d 5d 3f 2a 7b 8c 3f 39 46 74 3f
       1.0367565 0.8654353 1.0975087 0.9541965
000040 4e e1 85 3f d0 d7 7d 3f 63 42 80 3f 15 1e 6b 3f
       1.0459383 0.9915743 1.002026 0.91842777
000050 c7 57 8a 3f fa 75 7c 3f 7a 65 74 3f 2e 02 83 3f
       1.0808038 0.9861752 0.9546734 1.023504
000060 8a 7f 61 3f fb e0 8a 3f d7 27 83 3f 1b 4b 79 3f
       0.88085234 1.0849909 1.0246533 0.97380227
000070 aa 2a 89 3f 0e 0e 6c 3f 0a 9c 78 3f d9 0d 6f 3f
       1.0716145 0.92208946 0.97113097 0.93380505

conv2.1.bias f4 [32]
000000 2b 67 28 be cc e3 a4 bd 4c 01 d4 bd 17 55 03 bd
       -0.16445605 -0.08051261 -0.1035181 -0.03206357
000010 f7 42 25 bc 2a 45 27 be e8 20 ff bc 4e a1 50 bd
       -0.010086766 -0.16334978 -0.03114362 -0.050935082
000020 dc e2 85 bd 92 10 34 bd 35 ee 32 3c 8e d1 61 bd
       -0.065374106 -0.043961115 0.010921051 -0.055131488
000030 5c 79 8d bd 49 75 6d be 57 de 5d bd a3 b7 57 bd
       -0.06907913 -0.23189272 -0.054167118 -0.052665364
000040 5b 2f ae 3b cf a5 b7 3c 64 07 ab bb cb 98 1d be
       0.005315704 0.02241793 -0.005219387 -0.15390317
000050 a6 37 5a bd 0b 02 63 bd 18 d5 69 bd 58 6d 3f bd
       -0.053275727 -0.05542187 -0.057087988 -0.046735138
000060 12 73 32 be 8f 99 0e be eb ba 92 bd 51 89 a7 bd
       -0.17426708 -0.13925765 -0.07164558 -0.08180488
000070 48 17 01 bd c3 8e 5d bd c9 99 ab bd 21 c2 19 be
       -0.031516343 -0.054091226 -0.083789416 -0.1501546

conv2.1.running_mean f4 [32]
000000 7a 27 81 3e 5d 6e b2 be 82 44 4d bf 9a cf d2 3e
       0.2522543 -0.34849826 -0.8018266 0.41174012
000010 81 dd 8b 3f 18 9c 89 bf 60 81 42 bf 7b 3c f4 be
       1.0926973 -1.0750761 -0.7597866 -0.47702393
000020 15 b5 28 3f 06 d6 e1 3e bb 01 d2 3d d0 ac 87 bf
       0.6590131 0.441086 0.10254236 -1.0599613
000030 c7 ff 64 bc 97 56 5b bf a4 1d 6d 3f d9 6a 56 bf
       -0.013976998 -0.85679 0.92623353 -0.83756787
000040 4a e9 40 3f 41 e7 84 3e 3c b3 c2 bf d4 08 19 bf
       0.7535597 0.25957683 -1.5210948 -0.59779096
000050 01 b8 58 3f bb 24 d4 be 5e 17 cf bd 7e 3a 5a be
       0.8465577 -0.41434273 -0.10111879 -0.21311375
000060 30 ae 00 bf d5 3c 49 be f4 a0 99 be 54 81 e9 be
       -0.5026579 -0.19652112 -0.3000561 -0.45606482
000070 d5 47 20 3f 76 0f 22 3e 47 cc 52 bb 32 68 48 3e
       0.62609607 0.1582621 -0.0032165216 0.19570997

conv2.1.running_var f4 [32]
000000 22 9d 0f 3f a4 be d9 3e d3 ad f0 3e f6 e1 14 3f
       0.5609914 0.4252826 0.47007617 0.5815729
000010 57 3f 61 3f d1 c0 19 3f fe dc 25 3f 9f ba 11 3f
       0.87987274 0.6005984 0.6479033 0.56925386
000020 66 fa 41 3f 87 7a 3a 3f b9 8e 11 3f 3a 3a 01 3f
       0.757727 0.7284321 0.568584 0.5047947
000030 bb a6 07 3f 25 d6 f8 3e 54 db 3c 3f 6c 2c fd 3e
       0.52988786 0.4860088 0.7377217 0.49447954
000040 6c ca 36 3f 5d 69 d7 3e 4c 86 c4 3e 8d 67 10 3f
       0.7140262 0.42072573 0.3838371 0.56408006
000050 f6 bc 60 3f b9 aa 19 3f a1 98 a6 3e be ff 0a 3f
       0.8778833 0.6002613 0.32538322 0.5429648
000060 1b c7 cc 3e c9 e1 a6 3e 74 9c c5 3e 24 1a ff 3e
       0.39995655 0.32594135 0.38595927 0.4982463
000070 8e 47 21 3f 5b 7b 08 3f e2 89 a9 3e 05 f8 24 3f
       0.6299981 0.53313226 0.3311301 0.6444095

conv3.0.weight f4 [64, 32, 3, 3]
000000 84 d9 35 3b 35 26 07 be 15 42 78 3d 4a 2c e1 bd
       0.0027748058 -0.13198169 0.060609896 -0.109947756
000010 51 0e 94 bd 1a e6 94 bd 99 96 10 be 68 b2 94 bd
       -0.07229293 -0.07270451 -0.14119948 -0.07260591
000020 9d fa a4 3c 04 86 12 3e b2 20 79 3c b7 f2 00 bd
       0.020139033 0.14308935 0.015205549 -0.03148147
000030 6d 97 7d 3d a0 4d 08 3e f6 3c 0b 3d 68 22 42 3d
       0.06191199 0.13310862 0.033993684 0.047396094
000040 df 5e 1e 3d c8 c8 d1 bd 3a 98 18 3c 50 93 a0 3d
       0.038664695 -0.10243374 0.009313637 0.07840598
000050 a0 d7 cb 3c 62 1d db 3d ff 7a 4b 3d 47 46 a5 3c
       0.024883091 0.10698964 0.049677845 0.020175112
000060 61 b5 0a bd 2f d8 c1 3c 07 d0 26 3d 47 93 1b be
       -0.033864383 0.023662655 0.040725734 -0.151929
000070 bc 79 28 bd 2f 54 08 bd 65 0c 5c 3d 58 7a c8 3d
       -0.04113172 -0.03328341 0.053722758 0.0978896
000080 ca e0 bc 3c 05 8b 14 3d d6 b4 61 3c 9a ca 5c 3c
       0.023056407 0.03626539 0.013776025 0.013476038
000090 7a 76 bc 3b 47 ba 0a be 0e be 80 bd 66 45 29 be
       0.005751428 -0.13547622 -0.0628625 -0.1653038
0000a0 53 f4 6b 3c a8 26 0b 3e 3c 62 f5 ba 33 a7 9c 3d
       0.014401513 0.13588965 -0.0018721293 0.07649078
0000b0 4a 34 d9 bc 68 f7 05 3d b9 17 1d 3d 9b 52 a1 bc
       -0.026514191 0.032706648 0.0383527 -0.01969271
0000c0 ed 74 e8 bd 61 aa 02 3d c3 64 48 be 85 c1 a9 bd
       -0.11350427 0.031900767 -0.19569688 -0.08288864
0000d0 5b a3 a1 bc ac a0 85 bb 99 79 5e bd 31 7c ec 3c
       -0.019731214 -0.0040779915 -0.054315183 0.028867813
0000e0 d5 41 b4 bd 2e 04 2b bd cc dd 92 3d 5a 61 b6 bb
       -0.08801619 -0.041752033 0.07171211 -0.0055658044
0000f0 62 43 98 bd 78 c9 ee bc ca 74 96 3d 9d 84 20 bd
       -0.07434727 -0.029148802 0.073464945 -0.03918897
000100 23 cb 20 bc 24 53 79 bb 0e 0f 6d bd 74 34 a8 3d
       -0.009814057 -0.003804394 -0.057875685 0.0821313
000110 6e 10 b4 3d 08 f4 34 3c 4c 68 a1 bc 59 90 68 bc
       0.08792196 0.01104451 -0.019703053 -0.014194571
000120 83 c1 19 bd 3d a0 c4 bd e9 fa d0 bc 9b 42 85 bd
       -0.037538063 -0.096008755 -0.025510268 -0.065068446
000130 03 0b 76 3d 53 46 ec bc d6 14 12 bd db 05 18 3d
       0.060069095 -0.028842127 -0.035664402 0.03711496
000140 7e 1a 2f ba 22 bf 1e be 9b ea 1a 3d 64 5a 6f 3d
       -0.0006679668 -0.15502599 0.037821393 0.058435813
000150 9a 87 7c 3d 03 2b 01 3d 67 17 10 3e f5 4c ee 3c
       0.061652757 0.03153516 0.14071427 0.02908943
000160 1a b1 97 bd 7f c5 91 bc 6a 53 c8 bd ac 15 af bd
       -0.07406826 -0.017794369 -0.09781535 -0.085490555
000170 9d 08 78 bb ae c5 2d 3b 55 7a d1 3c b5 2c de 3d
       -0.003784693 0.0026515531 0.025571028 0.10848371
000180 4b 79 97 3d 2b 79 ed 3d 7c 2e 36 3d 90 b7 4a 3b
       0.07396182 0.115953766 0.044477925 0.0030932166
000190 2b 6d b5 3c e3 8d 70 3c 17 ee b3 3c 66 5f 05 be
       0.022146782 0.014682266 0.021964116 -0.13024673
0001a0 60 07 a8 bd ab 1a e9 3c 37 bb 36 bc 24 3a 9f 3c
       -0.08204532 0.0284551 -0.011153034 0.019436903
0001b0 0a a7 52 3d eb 1a f4 bc dd 08 02 bc 57 2f d9 bd
       0.051428832 -0.029797992 -0.0079366835 -0.106047325
0001c0 7d d2 10 be cd cb b6 bd 74 17 c7 bb 3c 45 30 bd
       -0.14142795 -0.08925591 -0.006075794 -0.043034777
0001d0 1c 9b 17 be 7c 7c c9 bd 88 91 ee 3d 23 f3 3c 3d
       -0.14805263 -0.09838197 0.11648852 0.04613031
0001e0 d1 bc 4e bc b5 36 a8 3b 9f b5 29 3d 0e fa de bd
       -0.0126182595 0.0051334747 0.041432973 -0.10887538
0001f0 a9 e3 6e 3c cb 2b 0f bd 90 ef 60 3d 1d 2b 90 bd
       0.014580646 -0.034953874 0.054915965 -0.07039473
000200 42 97 42 3d 86 85 c9 bb 98 40 0a be 20 51 a7 bd
       0.047507532 -0.0061499504 -0.13501203 -0.0816977
000210 31 0f de bd 07 a5 e2 bc d8 3b 86 bd e9 e5 a7 3d
       -0.10842741 -0.027666582 -0.06554383 0.08198149
000220 51 52 9b bd 8f 82 bd bb fd a4 09 be 32 d0 bb 3c
       -0.0758406 -0.005783386 -0.13441844 0.022926424
000230 1f 1c 08 3a 4d f7 e5 bd 6b 2e 6c bd 0a d7 70 3c
       0.00051921787 -0.112288095 -0.057661455 0.014699707
000240 3f 46 69 bd d7 73 97 bd 89 02 96 3d 51 b1 0f bd
       -0.056951758 -0.073951416 0.07324702 -0.03508121
000250 5c fe 02 3e dc e0 bc 3d b3 a1 03 3d 5d 0c 6b 3c
       0.12792343 0.09222576 0.03213663 0.014346209
000260 2d a9 ac bc 7d 51 98 3d 59 bc 0a 3c 6b 19 e5 bb
       -0.021076763 0.07437418 0.008467757 -0.0069915554
000270 ca e2 cd 3c 45 b7 77 bd a9 9b 5c be 02 9a 75 bd
       0.025132556 -0.060477514 -0.21543755 -0.059961326
000280 cd d7 51 3d 70 78 f1 3b ba 30 92 3d 1b 73 d2 3d
       0.051231194 0.0073690936 0.071382 0.10275861
000290 8a 8c 99 3d c6 97 3e bc 4a a8 94 3d ce 4b 9c bd
       0.07497509 -0.011632865 0.07258661 -0.07631646
0002a0 7f 53 95 bd c7 15 9f 3c 6c 74 78 3d 6b 39 00 3e
       -0.07291316 0.019419564 0.060657904 0.12521903
0002b0 df 23 1b bd a4 28 79 bc 12 94 98 bc ca 07 94 bd
       -0.037876006 -0.015207443 -0.018625293 -0.07228048
0002c0 3a 29 c7 bd 86 4a a5 b9 cb f4 16 3d b9 1d 2b 3d
       -0.0972466 -0.00031526777 0.036854547 0.041776393
0002d0 0f 13 a4 3c f6 b1 f5 bc 6c 53 b6 3c 36 d1 91 bd
       0.02002862 -0.029992085 0.022256576 -0.07119982
0002e0 b3 08 ac bd 3a 53 26 3d 50 78 f0 bb 74 ef 2f bd
       -0.08400097 0.040606715 -0.007338561 -0.04295297
0002f0 a1 10 d5 bc e1 ae 60 bd 1d 8b f5 bb 75 ec f2 bd
       -0.026008906 -0.054854278 -0.0074933902 -0.11861507
000300 f3 5d 16 3d 01 fa 30 bd a7 d3 ab bd b5 cb 88 bc
       0.03671069 -0.043207172 -0.08389979 -0.016698698
000310 55 be 57 bd 90 98 c0 bd cb 1a 9a 3d 24 4b eb bc
       -0.05267175 -0.09404099 0.075246416 -0.028722353
000320 0b 69 ef bd 9b 2c 42 bd 70 33 03 bc 5c b2 05 bd
       -0.11689957 -0.04740582 -0.008007869 -0.0326408
000330 91 9b 40 3d dc b0 c8 3d 68 c1 9c 3d e0 cd a6 bd
       0.04702336 0.09799358 0.07654077 -0.08144736
000340 a0 cf cd 3c cc 00 d1 bc 9d b0 9e bc 76 2b a0 bd
       0.025123417 -0.025513075 -0.019371325 -0.078207895
000350 1a de 8a 3d e0 fa 8a 3c 3e 96 6b 3d 12 a5 a7 3d
       0.06780644 0.01696533 0.05751633 0.081857815
000360 29 a5 da 3d 6b 44 01 3d 75 3a 20 bd 88 29 db bd
       0.10676033 0.03155939 -0.03911825 -0.10701281
000370 fe 74 c5 bd 19 aa 0e 3c 70 7a f5 3d 87 52 af 3d
       -0.09641455 0.008707547 0.11986244 0.08560663
000380 dc da 46 bd 54 ff 74 bd f1 59 dd bc f9 7d d5 3c
       -0.048548564 -0.059813812 -0.027020426 0.026061045
000390 9a 64 a9 bd cc 9a d8 3b 87 87 da bd 09 38 47 3c
       -0.08271141 0.00661025 -0.10670381 0.012159356
0003a0 4d ab 05 be 39 b2 58 3d 64 54 37 3d 29 eb 87 3c
       -0.13053627 0.05290434 0.044758216 0.016591625
0003b0 97 b6 03 be f1 fd a7 3d b8 68 f9 3b e7 13 16 3b
       -0.12862621 0.08202732 0.0076113604 0.0022900046
0003c0 97 32 9d bc 4d 48 8b bd 40 12 00 3d de 12 ed 3c
       -0.019189162 -0.068009 0.031267405 0.02893966
0003d0 73 4c e5 bc 32 68 32 3b e3 37 3a bd 46 3f 8a 3d
       -0.027990555 0.002722275 -0.045463454 0.0675035
0003e0 ee bf 33 be 0a cb de bd 25 7f e3 bd 72 60 6b 3d
       -0.17553684 -0.108785704 -0.11108235 0.057465024
0003f0 9a 11 91 bc 04 15 bd 3c 41 1a fc 3d a4 a3 8b 3d
       -0.017708588 0.02308131 0.12309695 0.06818321

conv3.0.bias f4 [64]
000000 9d e6 51 bd c8 9d 63 3c 82 4d 01 3b f6 85 8b bd
       -0.05124532 0.013892598 0.0019730036 -0.068126604
000010 a9 93 ac ba e1 23 f7 3c 3c 50 5c 3b 45 15 97 bd
       -0.0013166565 0.030168476 0.003361716 -0.07377104
000020 1b a8 10 bd 46 a5 ea 3c 91 9f 57 3d f4 4d 62 3d
       -0.035316568 0.028643262 0.05264241 0.055250123
000030 ba f9 d9 bc 55 17 31 bd a9 0e b2 bc 21 a4 32 3d
       -0.026608337 -0.04323514 -0.021735506 0.043613557
000040 c0 7d 6d 3d d9 2c 5d 3b 51 ba 91 3c cc 6e b4 3d
       0.057981253 0.0033748655 0.017789038 0.08810195
000050 ad a8 3c bb 3f 90 81 3c b7 41 cc 3d 65 6b 37 bb
       -0.0028787062 0.015815852 0.099734716 -0.0027987596
000060 7f 86 e7 bc e7 af 49 3b c3 69 12 3d 33 07 45 3d
       -0.028262375 0.0030775012 0.035745393 0.04810257
000070 96 1e 14 3d 4f 77 61 bd 4d 25 f3 bc 25 24 36 3c
       0.03616198 -0.055045422 -0.029680872 0.011117016
000080 78 70 f6 bc e0 21 53 bd 45 2b 96 bc 5e 5c 49 3d
       -0.030082926 -0.051545978 -0.01833118 0.049160354
000090 25 0e 99 bc 89 bd 58 3d 4a 5f a8 3c 27 59 65 3d
       -0.018683502 0.05291513 0.02055325 0.055993225
0000a0 fd 1c b0 3c c9 cf d8 3c 83 32 93 b8 85 bb 83 bb
       0.021498198 0.026466267 -7.018915e-05 -0.004020157
0000b0 40 b2 b0 3d 61 30 18 bd 31 a9 16 3d 87 10 df 3b
       0.086277485 -0.037155513 0.036782447 0.00680739
0000c0 5d 4b 23 3d e7 21 83 bd f8 ca c7 bb 58 09 22 bd
       0.039866794 -0.06402951 -0.006097194 -0.039559692
0000d0 ca 25 17 3b cc 20 20 bd 7c 62 2f bc 11 d0 f3 3c
       0.0023063296 -0.039093778 -0.010704633 0.0297623
0000e0 58 c5 46 bd 21 99 67 bd 09 f6 02 bb d7 85 5d 3d
       -0.048528045 -0.05654252 -0.0019983074 0.054082718
0000f0 82 3a ce 3c d8 19 c7 3c 3c ce 12 bd ee 99 64 ba
       0.025174383 0.024304315 -0.03584121 -0.0008720447

conv3.1.weight f4 [64]
000000 66 4d 79 3f 5d 6d 66 3f f3 a5 77 3f f7 d0 7b 3f
       0.97383726 0.90010625 0.96737593 0.9836573
000010 84 64 78 3f 8f ab 84 3f f5 54 78 3f 83 90 88 3f
       0.97028375 1.0364856 0.97004634 1.0669101
000020 30 01 79 3f ec 1b 74 3f 1a 07 87 3f bb ff 83 3f
       0.97267437 0.95355105 1.0549042 1.0312418
000030 83 fc 7e 3f 05 ef 6d 3f 21 a5 8a 3f 6c bd 64 3f
       0.9960405 0.9294284 1.0831643 0.89351535
000040 67 c2 7c 3f a1 3d 82 3f 89 bb 84 3f 28 ca 82 3f
       0.98734134 1.0175058 1.0369731 1.0217943
000050 04 c8 83 3f 28 72 82 3f 1b e3 6d 3f fe 7e 82 3f
       1.0295415 1.0191088 0.9292466 1.0195005
000060 93 1b 85 3f 74 ea 8d 3f 0c 71 83 3f 77 79 7f 3f
       1.039904 1.1087174 1.0268874 0.99794716
000070 72 1c 85 3f 8d 3a 6d 3f a1 8e 86 3f 1b fd 81 3f
       1.0399306 0.92667466 1.0512277 1.0155367
000080 35 b7 85 3f ea 27 86 3f 32 b0 7a 3f 4c f8 82 3f
       1.0446535 1.0480931 0.979251 1.0232024
000090 fb 87 87 3f b4 01 87 3f 5e 0b 8b 3f 9b 8d 79 3f
       1.0588373 1.0547395 1.0862844 0.974817
0000a0 77 38 86 3f 20 03 85 3f 6a db 71 3f fa dd 7a 3f
       1.0485982 1.0391579 0.94475424 0.9799496
0000b0 a6 a3 84 3f 1a b7 7b 3f bb 99 86 3f 45 6b 77 3f
       1.0362442 0.98326266 1.0515665 0.96648055
0000c0 58 8e 85 3f e1 79 78 3f db 2e 86 3f 49 90 83 3f
       1.0434065 0.9706097 1.0483049 1.0278407
0000d0 61 16 7e 3f 5a a6 57 3f 17 dd 7a 3f b5 f4 7f 3f
       0.992529 0.8423821 0.97993606 0.9998277
0000e0 b0 a3 83 3f 81 69 7b 3f 16 0e 6a 3f 69 bc 65 3f
       1.0284328 0.9820786 0.91427743 0.89740616
0000f0 e5 ab 67 3f 45 42 68 3f c2 6b 73 3f 0b 9a 78 3f
       0.90496665 0.9072612 0.950863 0.9711005

conv3.1.bias f4 [64]
000000 fb 77 04 be 4a 1b cc bd 6a 6e a8 bd 3a 44 5f be
       -0.12936394 -0.099661425 -0.08224185 -0.2180337
000010 05 db 0a be a3 c6 9d ba eb a2 27 bd e7 2f 0d be
       -0.13560112 -0.0012037348 -0.040926855 -0.13787805
000020 a6 bc ef bd e9 ab 3f bd 98 9a b0 bd 8f 98 4f bd
       -0.11705904 -0.046794806 -0.086232364 -0.0506826
000030 6b 3f 10 be 47 93 2c be 7e cd a7 bd 24 63 c8 bd
       -0.14086692 -0.16853057 -0.081934914 -0.097845346
000040 57 11 cf bd a1 17 55 bd d6 8e 03 be 1f a7 83 3c
       -0.10110729 -0.052024487 -0.12847456 0.0160709
000050 e5 a8 b0 bc ef 48 41 be 7f 06 e5 bd 61 7e 96 3b
       -0.02156491 -0.18875478 -0.1118288 0.0045927023
000060 c1 7b 4c 3c cc f2 86 bd e3 e3 78 bd 72 b7 0a be
       0.012480677 -0.065892786 -0.060764205 -0.13546541
000070 61 b0 ba bd 12 07 25 be d5 1a 8b bd 00 6c da bd
       -0.09115673 -0.16115978 -0.06792227 -0.106651306
000080 bb 91 e1 bd 92 f1 04 be 62 62 29 be 14 83 5d be
       -0.11014124 -0.12982777 -0.16541436 -0.21632034
000090 e3 df 78 bd f8 b9 55 be df 1c dd bd c0 a1 c5 3b
       -0.06076039 -0.20871723 -0.10796522 0.006031245
0000a0 f1 8b cd bd 2a e6 bd bd 89 72 2b be 3b 4b c9 bd
       -0.10036457 -0.09272416 -0.1674291 -0.09828802
0000b0 a9 94 b1 bd 39 84 3c be 2e 3d 2f be 7c 3d 17 be
       -0.08670933 -0.18409814 -0.17113182 -0.14769548
0000c0 10 4e 02 be ac 9d 67 bd 35 4a af bd 1f e9 cc bd
       -0.12725091 -0.056546852 -0.08559076 -0.10005402
0000d0 b4 70 da bd 60 18 56 be 1b 1c 05 be f7 10 7d bd
       -0.10666028 -0.20907736 -0.12999003 -0.061783757
0000e0 c3 24 b9 bd 10 b0 3b be 63 90 09 bd f8 9a 4b be
       -0.09040215 -0.18328881 -0.033584964 -0.19883335
0000f0 5c 7b bc bd e2 ec 9d bd 26 c8 f7 bc af 3f 1a be
       -0.092032164 -0.077111974 -0.030246805 -0.15063356

conv3.1.running_mean f4 [64]
000000 a9 60 ee be 91 20 86 bd b0 88 7f 3e 86 0d d7 be
       -0.4655812 -0.0654918 0.24954486 -0.42002505
000010 fe 6d 22 bf 5b 1e a0 be e6 81 38 bf 76 78 64 3e
       -0.63449085 -0.3127316 -0.7207321 0.22311577
000020 64 18 8a be b4 0f bc 3d c9 89 ed 3e f3 47 0c bf
       -0.26971734 0.09182683 0.46394184 -0.54797286
000030 42 31 57 3e fe f3 2c 3d 67 ca e0 bd 8f 52 b2 be
       0.21014884 0.042224877 -0.10976105 -0.34828612
000040 41 45 f0 be 68 d6 0c 3d 39 cb 53 3d 55 f8 fa 3d
       -0.46927837 0.03438416 0.05170748 0.12254397
000050 2a 39 ae 3e dc 4e cc be 1a ba 70 be 61 92 1d bf
       0.34027988 -0.39903915 -0.23508492 -0.6155148
000060 50 7e 3d 3d 45 12 89 be 24 cc e9 3e e5 88 66 bf
       0.04626304 -0.2677175 0.4566356 -0.90052634
000070 d3 28 22 bf b9 a1 69 3f 65 6b fa bc 0c b7 94 bd
       -0.6334354 0.91262394 -0.030568788 -0.07261476
000080 f9 fa e4 3e 15 11 72 be 87 10 e3 3b 1b 97 10 be
       0.44722727 -0.23639329 0.0069294604 -0.14120142
000090 9d f2 ea be 41 9a d5 3e ce 73 28 3f 7c 1a f4 3e
       -0.45888224 0.4171925 0.65801704 0.47676456
0000a0 53 dc 12 be 08 24 4c 3f 20 5b 93 be d3 0b 45 bf
       -0.1434186 0.7974248 -0.2878046 -0.7697117
0000b0 fc db cd be 9c 20 8c be 41 a1 07 bf c0 3b 44 3f
       -0.40206897 -0.2736863 -0.5298043 0.7665367
0000c0 d8 ac 9e be 83 29 4d 3f 53 93 e4 bd f8 f1 04 3d
       -0.30991244 0.80141467 -0.11160912 0.032457322
0000d0 4f 58 02 3e 86 6e 5b bf a5 49 9a 3d e1 ad f8 be
       0.12729 -0.8571552 0.07533578 -0.4857016
0000e0 ae dd fe be 49 30 46 bf 80 f5 03 bf dc 66 52 3e
       -0.49778503 -0.7741743 -0.5154648 0.2054705
0000f0 3a 65 9d bd 1f bc 8a be 85 3e 25 be 45 6a 0e bf
       -0.07685323 -0.2709665 -0.1613713 -0.55630904

conv3.1.running_var f4 [64]
000000 8e c9 85 3f 62 7c 1e 3f 0f a2 54 3f 99 f6 93 3f
       1.0452135 0.61908543 0.8305978 1.1559631
000010 93 56 a3 3f 11 18 8f 3f 80 2d 24 3f b6 e0 98 3f
       1.2760795 1.117922 0.6413193 1.1943576
000020 e3 c5 95 3f 17 7b 54 3f 54 a6 5e 3f cf ba 5b 3f
       1.1701015 0.8300032 0.86972547 0.8583192
000030 73 a4 3d 3f ba 39 a4 3f a4 1c 6a 3f 00 22 89 3f
       0.74079055 1.2830117 0.9144995 1.0713501
000040 e5 76 89 3f d4 25 7e 3f 68 ec a3 3f f2 4b 7c 3f
       1.0739409 0.9927647 1.280652 0.98553383
000050 27 53 37 3f 5e f2 8b 3f b8 22 6e 3f d6 59 b9 3f
       0.71611255 1.093334 0.93021727 1.4480541
000060 84 71 52 3f e1 ab 74 3f 23 6e 87 3f b0 2a 82 3f
       0.8220446 0.95574766 1.0580486 1.0169277
000070 99 d0 88 3f 9e 7d 5c 3f 25 07 95 3f cc f3 88 3f
       1.0688659 0.86129177 1.1642805 1.0699401
000080 65 93 3a 3f 7c 54 3d 3f ef 9f 86 3f 81 17 8f 3f
       0.72881156 0.7395704 1.0517558 1.1179048
000090 f0 1e 73 3f 6a 8c 7d 3f b8 9c 34 3f c9 ee 90 3f
       0.9496908 0.9904238 0.70551634 1.1322871
0000a0 42 f7 30 3f 41 4b 8b 3f 85 dd 72 3f 8f f9 25 3f
       0.69127285 1.0882341 0.9486926 0.6483392
0000b0 8b fe 5f 3f 85 14 81 3f 4a c3 32 3f f3 9e 84 3f
       0.87497777 1.0084387 0.6982924 1.0361007
0000c0 21 15 90 3f ce c1 56 3f 58 24 63 3f b0 65 8f 3f
       1.1256448 0.8388947 0.8872733 1.1202908
0000d0 58 63 ae 3f 68 5b bb 3f 2c 73 7d 3f 20 d6 97 3f
       1.3624067 1.463727 0.99003863 1.1862221
0000e0 7a bf 74 3f 5c 8c 4c 3f 3d 05 6e 3f c5 d8 59 3f
       0.9560467 0.7990167 0.92976743 0.8509639
0000f0 6d 49 95 3f 63 62 80 3f 7e d3 67 3f f8 1e 64 3f
       1.1663033 1.0030025 0.90557086 0.89109755

conv4.0.weight f4 [64, 64, 2, 2]
000000 62 d2 75 bc 6a 49 44 3c ab 45 13 be 5e f1 90 3d
       -0.015003772 0.011980394 -0.14382045 0.07077287
000010 fa d2 92 3d e9 04 25 3c af eb 72 bd f9 6f b0 3c
       0.07169147 0.010071971 -0.059306797 0.021537768
000020 2f b4 d4 bd 81 94 72 3c 63 c2 20 be fa 00 da 3d
       -0.1038593 0.014805914 -0.15699153 0.106447175
000030 62 c8 97 bd ec 64 e6 bc fe 1e 00 bc ba ec c9 3d
       -0.07411267 -0.028124295 -0.007819889 0.09859605
000040 49 54 5d bd fd b1 96 bc 97 36 b1 3d 0a c8 e0 bd
       -0.05403546 -0.018395418 0.0865299 -0.109756544
000050 78 17 88 3b 64 7d 78 bd af a7 fb 3d 85 61 09 3d
       0.0041531883 -0.060666457 0.122878425 0.033540267
000060 15 71 7c 3c bb d7 ff 3d 8e d2 99 bd d4 f9 92 3c
       0.01540782 0.12492319 -0.07510863 0.017941393
000070 2c 09 7a bb cc 89 75 bc 9f ba a6 bc 90 ec ca 3b
       -0.003815244 -0.014986467 -0.02035266 0.006192751
000080 33 98 23 be 4f 8b ae 3c ea e7 db 3b 13 12 3d bd
       -0.15976028 0.021306662 0.006710996 -0.046159815
000090 8c cf 2f bd 27 cb 13 3d dd 7d a4 bd 04 fa 93 3c
       -0.04292254 0.036082413 -0.08031819 0.018063553
0000a0 bd 30 a2 3b f0 51 00 be 6f b7 74 3e 8e 97 41 be
       0.0049496577 -0.12531257 0.238981 -0.1890547
0000b0 5e 0b aa bd e8 e8 9a 37 8b 59 2d bb 1c f5 38 bd
       -0.08302949 1.8466686e-05 -0.0026451077 -0.04515563
0000c0 68 77 a4 bd 91 da 2e bd 07 c6 92 3c 7f 4f 27 3c
       -0.080305874 -0.04268891 0.017916692 0.010211824
0000d0 67 6b 34 3c 96 f6 ce bd b5 9f 70 bd 6a ec 7a 3d
       0.011011935 -0.10105626 -0.05874606 0.06126062
0000e0 42 fe 0b bd c0 15 98 3c f4 1d 53 3a 14 3b a6 bd
       -0.034178026 0.018565059 0.00080534746 -0.08116737
0000f0 a5 64 d1 3c 8f 2f ee bd 37 07 32 bd e3 e4 90 3c
       0.025560686 -0.11630165 -0.04346391 0.017687267
000100 82 9b 20 bc 5c d7 9b 3c 30 a0 be bd fe fe e8 3c
       -0.009802701 0.01902359 -0.09307897 0.028441902
000110 a1 77 15 3d a7 e4 01 3c a1 e0 9d 3a 66 87 3d bc
       0.03649104 0.00792805 0.0012045094 -0.011567926
000120 97 a6 2f 3c 0c b2 9a 3c 5c b3 c0 3b 24 2f b5 3d
       0.01072087 0.018883727 0.0058807563 0.08846882
000130 98 4c a3 bd 17 85 c1 bc eb a4 b8 3d 3b c5 25 3c
       -0.079735935 -0.023623032 0.090158306 0.010117824
000140 06 93 b9 bb 75 db 52 bc 17 b2 5b bc 64 a6 f4 bd
       -0.0056632785 -0.012869705 -0.013409159 -0.11945799
000150 d0 b6 61 3d 4d 6a 40 bd fd 42 96 3d 3e e0 39 bd
       0.055105984 -0.046976376 0.07336996 -0.04537987
000160 b7 c9 0b bd 5e 77 5b bd da c1 c2 bd 22 d2 71 ba
       -0.034127917 -0.053580634 -0.095096305 -0.00092247326
000170 fd c4 a0 bd 3f a4 1e 3e 18 ee 6d 3d be 79 ed bd
       -0.078500725 0.15492342 0.058088392 -0.11595486
000180 33 e5 a9 3d ee 07 1d bd 6c 4f c1 bd 47 88 8d 3d
       0.082956694 -0.03833764 -0.09438977 0.069107585
000190 b6 2a 69 bc 99 b0 51 3d 71 f0 dd 3b f5 71 17 be
       -0.0142313745 0.051193807 0.0067730476 -0.14789565
0001a0 a0 16 8c bd bc 8c 00 3c 18 54 18 bc 05 d7 09 3e
       -0.06840253 0.007846054 -0.009297393 0.1346093
0001b0 dc f5 8a bd 8f a4 65 3d 40 f7 04 bc 81 6a 0c be
       -0.06785175 0.05606514 -0.00811559 -0.13712503
0001c0 be c1 9c 3c 00 05 90 bd 12 8f d4 bd 62 73 1b 3b
       0.019135352 -0.07032204 -0.10378851 0.0023719897
0001d0 d8 48 4c bd 85 20 e4 bb fd 34 57 3d 87 73 02 bd
       -0.049874157 -0.0069618844 0.052540768 -0.031848457
0001e0 58 ab 0d 3d 6e cd ab bd 9e 05 c2 3d 66 db 99 bd
       0.034587234 -0.08388792 0.09473728 -0.0751255
0001f0 d8 23 91 3d e5 8b 47 bd 1f a4 fd bc 21 24 7a bc
       0.07086915 -0.0487174 -0.030962048 -0.015267403
000200 8c 9f 76 bb bc 64 26 bc 06 f9 99 bd 84 99 40 bd
       -0.0037631718 -0.010155853 -0.075182006 -0.047021404
000210 7f 34 08 bd 14 f8 33 3d 79 67 a6 3d 90 cc e1 3c
       -0.03325319 0.043937758 0.081252046 0.027563363
000220 c8 a4 87 3c e4 83 8b 3d 76 23 ec bc e0 cb 82 bd
       0.016558066 0.068122655 -0.028825503 -0.06386542
000230 c3 8d 14 3e 05 1b c6 bb 8f 7e 81 3d cb b3 cc bd
       0.14507203 -0.0060457014 0.06322967 -0.0999523
000240 b9 34 9b 3b 95 12 22 bd af 7f f1 3d 21 06 b0 bc
       0.0047365096 -0.039568502 0.11791932 -0.021487297
000250 33 87 8a 3c 6f 35 d8 3c 3a 12 fc 3d d9 3e aa bd
       0.016910171 0.026392667 0.12308164 -0.083127685
000260 c6 45 58 be 99 66 e7 3c d0 7d 4e bd 44 a3 fc ba
       -0.21120366 0.028247165 -0.050412953 -0.0019274731
000270 dc c1 9c bb bb 3f b2 bc 73 18 c8 bc 6a 49 7f 3d
       -0.004783852 -0.021758905 -0.02442572 0.062325872
000280 3b 7f 2f 3e 5d 1a f5 bc 91 35 08 be c5 cb ee 3c
       0.17138378 -0.029919798 -0.13301684 0.0291499
000290 30 c2 91 3c b2 d2 8d 3c d4 11 04 3d 3c 43 62 3d
       0.017792791 0.017312381 0.032243565 0.0552399
0002a0 13 8d a5 3d b2 c6 5a 3d 79 30 15 be 0e 56 1d be
       0.080835484 0.053412147 -0.14569272 -0.15364859
0002b0 30 1f 87 3c 0b d7 8c 3c 9a 1d 3d bd 36 38 84 3d
       0.016494364 0.017192384 -0.04617081 0.06456034
0002c0 0f 54 2a 3e 6a 9c 38 3d 28 a1 58 3c b3 0d b9 bd
       0.16633628 0.045071043 0.013222016 -0.09035816
0002d0 65 04 70 bd b5 de 1d 3d 90 c9 be bc 7b ce 1e 3c
       -0.05859794 0.038542468 -0.023289472 0.0096927835
0002e0 5f a0 8f bb 3d 07 8f 3c 90 98 3e bd 97 f0 74 bc
       -0.0043831314 0.017459506 -0.046532214 -0.014949939
0002f0 75 1d 28 bd 3c 71 3b bd 3b 59 90 3c 79 eb 18 be
       -0.041043717 -0.045762286 0.017620673 -0.14933576
000300 47 01 15 bd 45 df 41 3c 1a 64 c6 bd 98 6f c1 bd
       -0.03637817 0.011833017 -0.096870616 -0.09445113
000310 51 77 86 bd 05 66 45 3c f6 7c 2f 3c af 66 57 3e
       -0.065657265 0.012048249 0.010710945 0.21035264
000320 36 b0 a8 3d 5d fc 15 bd 2f e8 92 bd 08 8c a7 3d
       0.082367346 -0.036617626 -0.07173192 0.08181006
000330 86 12 28 bd 94 9f ff 3b fe 63 9c 3c 23 0e 7b bd
       -0.04103329 0.0078010056 0.019090649 -0.06129278
000340 2c 4f eb bc bf a4 7f bc 06 3e 82 3a 56 76 b7 3d
       -0.028724276 -0.015603243 0.0009936697 0.08958118
000350 19 76 e2 bd d0 b7 8d bd eb 83 cd bd d3 66 f7 bc
       -0.110576816 -0.06919825 -0.10034927 -0.030200398
000360 b7 b9 3d ba f4 b6 41 3d 2c 61 22 bc 0a bd 51 bd
       -0.00072374515 0.04729362 -0.009910863 -0.051205672
000370 49 8c 4f 3d d5 59 ea bc a2 02 ac 3c be e8 06 3d
       0.050670896 -0.028607288 0.02099735 0.032936804
000380 ee 1b 06 3d 28 4f dd 3c 77 08 d5 bc 85 2c 04 3e
       0.03274148 0.027015284 -0.026005013 0.12907608
000390 b1 b2 ff bc 78 f6 32 3e 08 2d b4 3c 19 7b 6d 3c
       -0.031213136 0.17476833 0.021994129 0.014494681
0003a0 4d 0d b1 3d a3 54 89 bc b4 42 f4 3d e0 c4 65 bc
       0.08645115 -0.01676399 0.11926785 -0.014023989
0003b0 b7 f4 ba 3d c1 09 04 bb c9 34 74 bd 9e 6a 55 bd
       0.09128707 -0.0020147415 -0.059620652 -0.05210363
0003c0 ed 8e 10 bd c3 f7 90 bd f9 2f 8b bd b1 d2 0e 3c
       -0.035292555 -0.07078507 -0.067962594 0.008717225
0003d0 e7 07 13 3c ef 75 39 3b f3 22 d9 bc 6f ce 0c 3b
       0.008974052 0.0028299054 -0.026505923 0.0021485349
0003e0 38 51 29 3d de f7 88 3d 58 21 74 bc e9 4b 3f bc
       0.04133722 0.06687902 -0.014900528 -0.011675813
0003f0 05 3f 46 3d 17 90 24 3c e0 6c 97 3c 97 b8 a8 bd
       0.048399944 0.010044119 0.018484533 -0.08238333

conv4.0.bias f4 [64]
000000 2b 61 dd bc 8b 2a 83 3d 08 09 74 3c 6d 3c b8 3c
       -0.027023872 0.06404599 0.014894731 0.02248975
000010 04 c3 5e bd 63 9f 4b ba 43 ec 56 3c 01 de 2d 3d
       -0.0543852 -0.0007767586 0.013117853 0.042448048
000020 e9 bb fd 3c c3 90 96 3c c5 20 31 bc b5 37 82 3c
       0.030973392 0.018379575 -0.0108110355 0.015895704
000030 07 bf 2b 3b 98 db 61 bd bb e1 20 bd 00 3f 36 bd
       0.002620639 -0.05514106 -0.039277773 -0.044493675
000040 44 ac 3a 3d c9 39 07 bb 7e 23 00 3d 2e dd 42 3d
       0.04557444 -0.0020633808 0.031283848 0.047574215
000050 84 fa fb bc b7 e6 7b bd 30 10 48 3d 8e 3f 6b 3d
       -0.030759104 -0.061499324 0.048843563 0.057433657
000060 67 fc c3 bc bd 37 26 3d 89 f3 f0 3c ac 85 6a 3d
       -0.023924066 0.0405805 0.029413002 0.057256386
000070 0f a5 2e 3d b5 7a 91 3c 5c 4c 8d bb 56 fa a0 bc
       0.04263788 0.017758707 -0.0043120813 -0.01965062
000080 bd 8f 10 3d e0 3e a3 3c 5f 53 8b 3b 44 9b 7b 3d
       0.03529333 0.019927442 0.004251882 0.06142737
000090 04 08 43 bc de b5 08 bd 03 7a e1 bc 1b 2b 2d bd
       -0.011903767 -0.033376567 -0.027524 -0.042277437
0000a0 57 e2 18 3d aa b7 bb bc 61 e0 77 bb c2 68 2e bd
       0.03732523 -0.022914726 -0.003782295 -0.042580374
0000b0 8c 0b f1 3b 26 8c 6b bd 64 0e 2b bd e3 35 0e bd
       0.007356113 -0.057506703 -0.04176177 -0.03471936
0000c0 32 17 60 3d cf 05 5a bd b6 4e f7 bc 32 1f 18 bd
       0.05470962 -0.053228196 -0.0301889 -0.037139125
0000d0 03 43 14 bc cf b3 ec 3c cf a0 fa bc ea 50 88 bc
       -0.00904918 0.028894333 -0.030594258 -0.016640145
0000e0 92 12 30 bd c8 62 9d 3d 43 66 ee ba 8f 9f 05 3c
       -0.04298646 0.07684857 -0.0018188435 0.0081557175
0000f0 fd 20 7c bd 71 9f 2c 3d 91 68 bb bc e0 c1 0e bc
       -0.061554898 0.042144243 -0.02287701 -0.008713216

conv4.1.weight f4 [64]
000000 5b 28 8b 3f 53 8d 8c 3f 12 5c 97 3f d6 35 8b 3f
       1.087169 1.0980629 1.1824973 1.0875804
000010 c4 51 93 3f f1 89 92 3f 20 19 8b 3f 88 b5 8e 3f
       1.1509328 1.1448346 1.0867043 1.1149149
000020 7a 03 90 3f 65 c4 93 3f 9f 11 8c 3f 93 85 87 3f
       1.1251061 1.154431 1.0942878 1.0587639
000030 b5 b8 91 3f 14 bf 91 3f 0d 03 8e 3f d8 57 97 3f
       1.1384493 1.1386437 1.1094681 1.1823683
000040 ab b9 8b 3f 75 89 8f 3f 65 3e 89 3f ba 2f 8c 3f
       1.0916036 1.1213824 1.0722166 1.0952065
000050 1c b9 8f 3f 36 f5 91 3f a5 76 99 3f 7d d6 8e 3f
       1.1228366 1.1402957 1.1989332 1.1159207
000060 d5 62 97 3f 34 f6 8a 3f 33 54 8e 3f b0 8b 92 3f
       1.1827036 1.0856385 1.1119446 1.1448879
000070 69 6b 9e 3f e4 02 8f 3f 62 01 89 3f 6e 78 8d 3f
       1.2376529 1.1172757 1.0703547 1.1052377
000080 76 ff 88 3f ed 2a 8b 3f eb f4 8d 3f df 14 90 3f
       1.070296 1.0872475 1.1090368 1.1256369
000090 44 b5 8a 3f df 34 94 3f ae 51 8a 3f 90 b1 8f 3f
       1.0836568 1.1578635 1.0806177 1.1226063
0000a0 ca ee 8f 3f ee 6c 89 3f c5 00 8d 3f bf 54 91 3f
       1.1244748 1.0736368 1.101586 1.1353987
0000b0 6b ab 91 3f 57 40 90 3f 08 f6 8d 3f ab be 8f 3f
       1.1380438 1.1269635 1.1090708 1.1230062
0000c0 b6 b6 8e 3f 7d 35 8c 3f 07 d3 8d 3f 4c 31 92 3f
       1.1149509 1.0953823 1.1080025 1.1421294
0000d0 75 7a 8e 3f 32 8a 8b 3f c9 24 86 3f 77 bc 88 3f
       1.1131121 1.0901549 1.0479976 1.0682515
0000e0 d0 e8 94 3f 96 e0 94 3f 12 ad 87 3f 7a 5b 8d 3f
       1.1633549 1.1631038 1.0599692 1.1043541
0000f0 4b ba 92 3f ce 5c 91 3f d2 cf 8c 3f 5e 37 86 3f
       1.1463102 1.1356447 1.1000922 1.0485647

conv4.1.bias f4 [64]
000000 c2 1d dc bc bd c5 a9 3b b9 65 5f 3c 90 4d 08 bc
       -0.026869658 0.005181043 0.013635092 -0.008319274
000010 6a 21 95 bb 83 f7 9e bb 50 2c 09 3d 55 98 1c 3d
       -0.0045511024 -0.004851283 0.033489525 0.038231213
000020 cf c2 a3 3c c0 91 b0 38 d5 93 07 3c 75 e0 86 3c
       0.019990353 8.419482e-05 0.008274992 0.016464451
000030 c2 7d 26 3d 64 f9 0d 3d 25 ca 53 bd f6 61 1c 3d
       0.040647276 0.034661666 -0.051706452 0.03817936
000040 71 8c 0e 3d 97 a7 ec bc 9f a3 53 3c 53 2b 27 bd
       0.034801904 -0.028888507 0.012917428 -0.0408128
000050 ba fe ac 3c 9c 87 32 3c 8d cb a9 3c 61 c6 0e bd
       0.021117557 0.01089659 0.020726943 -0.034857158
000060 9c 03 94 bd 0a 9c 98 3c af a7 b6 3d 73 f9 c2 bb
       -0.07227251 0.018629093 0.08918702 -0.005950147
000070 a5 42 38 3b f5 c6 83 3c 2a 1e 25 bc 02 46 0c bc
       0.0028115895 0.016086081 -0.010077992 -0.008561613
000080 79 5f ed bc 9e 0e 0d bd 8f 12 f6 3c 01 d6 df bc
       -0.028976189 -0.03443777 0.030038146 -0.027323725
000090 05 e4 a5 3b 20 d4 4f 3d ab 4f 91 bd c2 95 07 3d
       0.0050625824 0.050739408 -0.070952736 0.033101805
0000a0 4e 0e 6a 3c e5 c8 0b bd fa 62 4c 3c 94 ef 0c bd
       0.014285637 -0.034127135 0.01247477 -0.034408167
0000b0 25 37 87 3b 36 0c 31 3c 26 d0 a5 3c 68 fa 7a 3b
       0.004126447 0.010806134 0.020240854 0.0038296226
0000c0 09 cf 6c bc f9 dc 83 3d 76 41 df bc 80 85 28 bc
       -0.014453658 0.064386316 -0.027252894 -0.010285735
0000d0 60 00 5d bb fe 35 2d bd 50 ce ad 3c 05 c7 2a 3d
       -0.0033722147 -0.04228782 0.021216542 0.041693706
0000e0 07 39 d1 3c 4f f1 f3 bc 35 49 3c bd cf f4 fb 3c
       0.025539888 -0.02977815 -0.045968253 0.030756382
0000f0 de 81 2d 3d b3 e9 d8 bc 0d b8 cd 3b eb 23 8e bc
       0.04236018 -0.026478624 0.006278044 -0.017351111

conv4.1.running_mean f4 [64]
000000 e6 ea 52 bf 8a 04 c4 bd d5 ba ad bf 38 88 29 3f
       -0.82389677 -0.09571178 -1.3572642 0.6622348
000010 ef 45 ad be e5 0a f7 be b6 6d e6 be d2 d6 9e bd
       -0.33842418 -0.482505 -0.45005578 -0.077558175
000020 33 12 6e 3e 76 9c 62 be 52 f5 01 3f 12 45 80 bf
       0.2324913 -0.22129998 0.50764954 -1.0021079
000030 3e 45 20 be 16 3f ae be ca 90 24 bf 02 9e 52 bf
       -0.15651414 -0.34032506 -0.6428343 -0.8227235
000040 4e d7 d3 be ca 3b 2a be 9a 96 c5 be 73 08 c2 3e
       -0.41375202 -0.1662437 -0.38591462 0.3789707
000050 a7 a9 ca be 00 32 6c bf 4e 33 04 be 2d 14 28 3e
       -0.3958256 -0.92263794 -0.12910196 0.16413946
000060 aa 9d 62 bf 4f 61 b0 be bb 53 51 bf 37 a2 f1 3e
       -0.88521826 -0.3444924 -0.8176839 0.47194073
000070 d7 d0 16 bf 72 e5 7d bf 1e e8 c9 3d c8 7e 57 bf
       -0.58912414 -0.9917823 0.09858726 -0.8417783
000080 1d 7d 03 bf 2f e9 8e be b3 3e 03 bd f2 3b 29 bf
       -0.5136278 -0.2791228 -0.032042217 -0.66107094
000090 5a 4f e9 3e c7 ae 25 bd 88 6e 68 3f b1 a7 4a bf
       0.45568353 -0.040449884 0.9079366 -0.79162127
0000a0 96 46 97 3e 4b cf 6d 3e 41 18 10 3e 61 36 ff bd
       0.2954604 0.23223607 0.14071752 -0.12461544
0000b0 6f 00 34 bf ff 52 c1 3e 82 e4 f4 bd f7 f5 86 3e
       -0.7031316 0.37758633 -0.11957647 0.2635953
0000c0 8f a8 d5 be 6e 20 67 bf 3c c7 8f 3e 17 93 7a be
       -0.41730163 -0.9028386 0.2808169 -0.24470173
0000d0 d3 ae d6 be 28 ac 89 bf 48 fd 04 bf 77 22 54 bf
       -0.41930255 -1.0755663 -0.51948977 -0.8286509
0000e0 95 07 44 bf bc 7f 49 3e 5a 96 6a bf c0 63 71 3d
       -0.7657407 0.19677633 -0.9163567 0.05893302
0000f0 8d 72 16 bf 84 fb 5a 3d b8 a7 e2 be e0 ce 01 b9
       -0.5876854 0.05346252 -0.44268584 -0.00012379466

conv4.1.running_var f4 [64]
000000 95 66 15 3f 5a b6 22 3f f8 50 23 3f e4 d3 5f 3f
       0.5835965 0.63559496 0.63795424 0.87432694
000010 bd 60 42 3f 1a 06 55 3f b0 24 32 3f b6 4c 14 3f
       0.7592886 0.83212435 0.6958723 0.5792955
000020 97 86 4e 3f fb 81 2d 3f 24 e5 61 3f 14 d7 46 3f
       0.8067412 0.6777646 0.88240266 0.77671933
000030 25 e2 1a 3f f5 ab 25 3f 52 f7 6a 3f 44 a3 82 3f
       0.6050132 0.6471551 0.9178363 1.0206075
000040 85 4d 6b 3f 76 17 2a 3f b6 d4 59 3f e6 5d 57 3f
       0.9191516 0.6644205 0.85090196 0.8412765
000050 ad 41 30 3f d9 18 5c 3f 7a ff 5d 3f cb 50 14 3f
       0.68850213 0.85975415 0.8671795 0.5793578
000060 60 9c 3a 3f 52 01 37 3f 94 3b 46 3f 94 72 2f 3f
       0.7289486 0.7148639 0.7743466 0.6853421
000070 09 ba 2c 3f a3 7b 3f 3f 3e 77 0e 3f 6b e6 12 3f
       0.6747137 0.7479803 0.556507 0.5738284
000080 fc 43 5f 3f b8 c7 62 3f c3 f6 51 3f 0d e3 23 3f
       0.8721311 0.88585997 0.82017154 0.64018327
000090 5a 81 48 3f 04 8a 61 3f fa ca 41 3f c9 60 4c 3f
       0.78322375 0.8810122 0.7570034 0.7983518
0000a0 62 5e 26 3f e7 b3 46 3f 5f 79 3f 3f 2c 4b 42 3f
       0.64987767 0.7761826 0.7479457 0.75895953
0000b0 a9 d7 f2 3e 81 02 44 3f e3 fa 5e 3f 8a 1c 32 3f
       0.4743016 0.7656632 0.8710157 0.695748
0000c0 47 b4 39 3f 78 5c 89 3f 50 2d 17 3f 24 3f 24 3f
       0.72540706 1.0731344 0.59053516 0.64158845
0000d0 24 54 44 3f e6 6c 68 3f 2b 8d 42 3f 5f c5 8f 3f
       0.7669089 0.90791166 0.75996655 1.1232108
0000e0 b5 2e 52 3f f8 77 34 3f bc 4f 54 3f b2 1d 23 3f
       0.8210252 0.7049556 0.82934165 0.63717186
0000f0 72 32 49 3f 9c 6a 26 3f 7a b5 09 3f 07 d6 47 3f
       0.785926 0.65006423 0.53792536 0.78060955
